…
       "TrainOutput(global_step=191310, training_loss=0.20724939294114625, metrics={'train_runtime': 27170.0921, 'train_samples_per_second': 225.294, 'train_steps_per_second': 7.041, 'total_flos': 4.59861890413223e+16, 'train_loss': 0.20724939294114625, 'epoch': 30.0})"
      ]
     },
     "execution_count": 33,
     "metadata": {},
     "output_type": "execute_result"
    }
   ],
   "source": [
    "trainer.train()"
   ]
  },
  {
   "cell_type": "code",
   "execution_count": 35,
   "id": "9693bcfa-bf95-4143-9e8c-19b7e88d6061",
   "metadata": {},
   "outputs": [
    {
     "data": {
      "text/plain": [
       "DistilBertForSequenceClassification(\n",
       "  (distilbert): DistilBertModel(\n",
       "    (embeddings): Embeddings(\n",
       "      (word_embeddings): Embedding(30522, 768, padding_idx=0)\n",
       "      (position_embeddings): Embedding(512, 768)\n",
       "      (LayerNorm): LayerNorm((768,), eps=1e-12, elementwise_affine=True)\n",
       "      (dropout): Dropout(p=0.1, inplace=False)\n",
       "    )\n",
       "    (transformer): Transformer(\n",
       "      (layer): ModuleList(\n",
       "        (0-5): 6 x TransformerBlock(\n",
       "          (attention): MultiHeadSelfAttention(\n",
       "            (dropout): Dropout(p=0.1, inplace=False)\n",
       "            (q_lin): Linear(in_features=768, out_features=768, bias=True)\n",
       "            (k_lin): Linear(in_features=768, out_features=768, bias=True)\n",
       "            (v_lin): Linear(in_features=768, out_features=768, bias=True)\n",
       "            (out_lin): Linear(in_features=768, out_features=768, bias=True)\n",
       "          )\n",
       "          (sa_layer_norm): LayerNorm((768,), eps=1e-12, elementwise_affine=True)\n",
       "          (ffn): FFN(\n",
       "            (dropout): Dropout(p=0.1, inplace=False)\n",
       "            (lin1): Linear(in_features=768, out_features=3072, bias=True)\n",
       "            (lin2): Linear(in_features=3072, out_features=768, bias=True)\n",
       "            (activation): GELUActivation()\n",
       "          )\n",
       "          (output_layer_norm): LayerNorm((768,), eps=1e-12, elementwise_affine=True)\n",
       "        )\n",
       "      )\n",
       "    )\n",
       "  )\n",
       "  (pre_classifier): Linear(in_features=768, out_features=768, bias=True)\n",
       "  (classifier): Linear(in_features=768, out_features=73, bias=True)\n",
       "  (dropout): Dropout(p=0.2, inplace=False)\n",
       ")"
      ]
     },
     "execution_count": 35,
     "metadata": {},
     "output_type": "execute_result"
    }
   ],
   "source": [
    "save_directory = r'C:\\Users\\user\\Desktop\\Varsha\\model'\n",
    "\n",
    "# Load the model and tokenizer from the directory\n",
    "model = AutoModelForSequenceClassification.from_pretrained(save_directory)\n",
…
